data.pth (torch, 19370 bytes, 6 tensors)

l1.weight f4 [10, 256]
0	0x3e251c01	0.16123964
1	0x3fa933b7	1.3218907
2	0x3f380518	0.7188277
3	0x3bc12282	0.005894006
4	0x3f19ce64	0.6008055
5	0x3c89d8c0	0.016826987
6	0xbf1e1854	-0.6175587
7	0xbf102159	-0.56300884
8	0xbf8c275f	-1.0949515
9	0xbeddf99d	-0.43354502
10	0x3d623c5e	0.055233352
11	0x3d560470	0.052250326
12	0xbf0218b5	-0.5081895
13	0xbee97d3b	-0.45603356
14	0x3f5417c1	0.82848746
15	0xbf1748ca	-0.5909544
16	0x3fb8fa3e	1.4451368
17	0x3f17c613	0.5928661
18	0x3f272541	0.6529122
19	0x3f02060d	0.5079048
20	0xbe03ee24	-0.12883812
21	0x3efae207	0.4900057
22	0x3f7db5c3	0.9910547
23	0x3f835eeb	1.0263342
24	0x3ec38261	0.3818541
25	0xbef68bce	-0.48153538
26	0xbeb239b3	-0.34809646
27	0xbec7de9b	-0.39037022
28	0x3fc54fd4	1.5414987
29	0xbf51f66e	-0.82016647
30	0x3e335513	0.17512922
31	0xbe057118	-0.13031423
32	0x3f80ac0d	1.0052506
33	0x3f0f28d1	0.55921656
34	0x3f21295c	0.62953734
35	0x400120d8	2.0176296
36	0xbe942cea	-0.28940517
37	0x3fb7fa2c	1.4373221
38	0xbc581d73	-0.013190615
39	0x3ead9189	0.33900097
40	0x3d74682c	0.05966966
41	0x3ec5cf31	0.38634637
42	0xbf18f0db	-0.59742516
43	0x3e858213	0.260758
44	0xbf3f2c63	-0.74677104
45	0xbeb33cc0	-0.35007286
46	0xbf84d961	-1.0378839
47	0xbc561dbb	-0.013068612
48	0x3ece8830	0.40338278
49	0xbe4896d0	-0.1958878
50	0xbf144790	-0.57921696
51	0xbf849856	-1.0358989
52	0xbf0f0df9	-0.55880696
53	0x3c4d4fc8	0.012531228
54	0xbf1eb89a	-0.6200043
55	0xbf56405b	-0.8369195
56	0x401140bf	2.2695768
57	0x3ec7580b	0.3893436
58	0xbf69fe2e	-0.9140347
59	0xbf046307	-0.51713604
60	0xbd79414a	-0.06085328
61	0xbf3a55bb	-0.72787064
62	0x3f24e6b2	0.64414513
63	0xbf0e059e	-0.5547732
64	0xbcb8792c	-0.022518717
65	0x3e3a5179	0.18195142
66	0x3f1effd2	0.621091
67	0xbf0f919d	-0.56081563
68	0x3dde06b8	0.10841125
69	0xbf56bf0a	-0.8388525
70	0x3ef066de	0.4695348
71	0x3f472210	0.7778635
72	0xbe9e7ad1	-0.30953076
73	0x3d17b7a6	0.037040375
74	0x3fd7a7d3	1.6848091
75	0xbd10056e	-0.03516143
76	0xbda8eee1	-0.082486875
77	0xbdf38d34	-0.11892167
78	0xbebd4fcf	-0.36974952
79	0x3b490119	0.003067082
80	0x3d5ee873	0.0544209
81	0xbe81e47c	-0.25369632
82	0x3d0a3f30	0.033751667
83	0xbef89998	-0.48554683
84	0x3ecae70b	0.39629397
85	0x3c270978	0.010195129
86	0xbfc59e1b	-1.5438875
87	0x3f8f3be4	1.1190152
88	0xbe8e14a1	-0.27750114
89	0x3f541479	0.8284374
90	0x3eca29c4	0.3948499
91	0x3e13d4ee	0.14436695
92	0x3fb4c20f	1.4121722
93	0xbeed45e7	-0.46342394
94	0xbe5de2d9	-0.21668567
95	0x3e814acf	0.25252387
96	0x3f866dab	1.0502218
97	0x3ed4b6a1	0.41545585
98	0x3dcff77b	0.10154625
99	0x3f250427	0.6445946
100	0x3fb86791	1.4406606
101	0x3ee138ab	0.43988547
102	0xbeae0705	-0.3398973
103	0xbff0cc49	-1.8812343
104	0x3e8224a1	0.2541857
105	0xbecca107	-0.39966604
106	0x3d174392	0.036929674
107	0x3fe6ba1a	1.8025544
108	0x3ecf7de2	0.40525728
109	0xbd43e15a	-0.047822334
110	0xbd7a9fa8	-0.061187416
111	0x3fd238f7	1.6423634
112	0x3b5c14a7	0.0033581646
113	0x3f4509c4	0.76968026
114	0xbf2d7ea3	-0.6777136
115	0x3f63c8d9	0.88978344
116	0xbe714571	-0.23561646
117	0x3dd7c0f3	0.10534849
118	0xbd8b45ce	-0.068004236
119	0x3e720a91	0.23636843
120	0x3bcd43d0	0.0062641874
121	0x3ebf23cd	0.37332
122	0x3f093178	0.5359111
123	0xbee97e0f	-0.45603988
124	0x3f39df45	0.7260631
125	0x3f14924d	0.5803574
126	0xbf0fe0be	-0.56202304
127	0xbed37ae1	-0.41304687
128	0x3d6aac15	0.057293016
129	0x3e15c969	0.14627613
130	0x3f82133a	1.0162117
131	0x3dcbfeaf	0.099606864
132	0xbf0ff599	-0.5623413
133	0xbc8892ac	-0.016671501
134	0x3da46d23	0.08028629
135	0x3dd1945e	0.10233377
136	0x3f507b43	0.8143808
137	0x3f491939	0.7855411
138	0x3f3b03e2	0.730528
139	0xbcdb0bd0	-0.026739031
140	0xbcd4a716	-0.025958579
141	0xbb0fe900	-0.0021958947
142	0xbf948ed0	-1.1606083
143	0xbe39c80c	-0.18142718
144	0x3f405c1c	0.7514055
145	0x3d95a154	0.073061615
146	0x3f4bbf8b	0.79589146
147	0xbed8b674	-0.423267
148	0x3f5af0c9	0.8552366
149	0x3d7b5efc	0.06136988
150	0xbe337ead	-0.17528792
151	0xbec55524	-0.3854152
152	0xbcec904d	-0.028877402
153	0x3d1feede	0.03904616
154	0xbc0e05b0	-0.008668348
155	0x3f3dbf85	0.7412036
156	0x3f9332fc	1.1499934
157	0xbef8b658	-0.48576617
158	0xbeea0a90	-0.45711184
159	0xbf521af8	-0.820724
160	0x3c850574	0.016237952
161	0x3e3d969a	0.18514481
162	0xbf16310d	-0.58668596
163	0x3e585f88	0.21130192
164	0x3c26aa68	0.010172464
165	0xbe47d5ce	-0.19515154
166	0xbe7b8600	-0.24562836
167	0x3d7c2412	0.061557837
168	0xbcb08260	-0.021546543
169	0x3f331099	0.699472
170	0xbf6f9b11	-0.9359599
171	0xbc9d2574	-0.019182898
172	0xbed33a9d	-0.41255656
173	0x3f9e97a4	1.2390027
174	0x3f8ff08b	1.1245283
175	0x3f9ce62b	1.2257742
176	0xbf31046e	-0.69147384
177	0xbeb7c68a	-0.3589366
178	0x3f0ef423	0.55841273
179	0xbf377db2	-0.7167617
180	0x3d308fe2	0.043105967
181	0x3faf0790	1.3674183
182	0x3fe98330	1.824316
183	0xbd6b5a63	-0.057459246
184	0xbf54a9a1	-0.83071333
185	0xbf0ed3cc	-0.55791926
186	0xbf5bbda8	-0.8583627
187	0xbeab302e	-0.33435196
188	0xbf5378dd	-0.826063
189	0xbf09dca8	-0.5385232
190	0xbf35e258	-0.710485
191	0xbe988fc2	-0.29797179
192	0xbf591772	-0.848014
193	0x3d63d474	0.055622533
194	0xbd7a2fb0	-0.061080635
195	0xbe4e0e1f	-0.20122574
196	0x3e3827e3	0.17983966
197	0x3ef71a93	0.48262462
198	0xbf3cb7f7	-0.7371821
199	0xbebacfdd	-0.36486712
200	0xbf38c6d8	-0.7217841
201	0xbf3dc286	-0.74124944
202	0xbed0b523	-0.40763196
203	0x3f2034ce	0.62580574
204	0x3dbfb1e1	0.093600996
205	0xbe56e9c5	-0.20987613
206	0xbea50ab6	-0.32234734
207	0x3f424ec1	0.7590142
208	0xbec5653c	-0.38553798
209	0xbe50d1a8	-0.20392478
210	0xbf84c7a4	-1.0373425
211	0xbf3ff70a	-0.74986327
212	0xbefba1df	-0.49146935
213	0xbef145b6	-0.47123498
214	0x3e922f8d	0.28551903
215	0xbd44aefc	-0.04801844
216	0x3f5d206b	0.8637759
217	0x3f40dd4c	0.7533767
218	0x3e8e0b98	0.2774322
219	0x3dd3f4a0	0.10349393
220	0xbc13aeb1	-0.009013818
221	0x3f77d360	0.9680691
222	0xbf0393e6	-0.5139755
223	0xbed061ef	-0.40699717
224	0xbf561385	-0.83623534
225	0xbf3ef3de	-0.7459086
226	0xbebded88	-0.37095284
227	0xbf5c28ed	-0.8599995
228	0x3fbedb94	1.491076
229	0x3e916dfb	0.2840422
230	0x3ead3c7b	0.33835205
231	0x3f0bce5d	0.5461176
232	0x3f3da83b	0.74084824
233	0xbd594a04	-0.053049102
234	0x3eec2248	0.46119905
235	0x3f6450e6	0.8918594
236	0xbf597777	-0.84947914
237	0xbece581b	-0.40301594
238	0xbcd7bb74	-0.026334502
239	0xbf19a9dc	-0.6002481
240	0xbe80ace0	-0.25131893
241	0x3f949f3b	1.1611093
242	0x3f0b456a	0.5440279
243	0xbd869a97	-0.065724544
244	0xbf0848b6	-0.5323595
245	0xbe862686	-0.26201266
246	0x3d05b2c3	0.032641184
247	0xbe4eaa98	-0.20182264
248	0x3f4131d3	0.7546665
249	0xbcda7ac0	-0.02666986
250	0x3f7a631f	0.97807497
251	0xbf5f8e63	-0.8732664
252	0xbed6f46d	-0.41983357
253	0xbd4938ab	-0.04912631
254	0x3f2248d4	0.63392377
255	0x3f28b32d	0.658984

l1.bias f4 [10]
0	0x3f1997c6	0.5999721
1	0x3f8bbec9	1.0917598
2	0x3e3d9159	0.18512477
3	0x3e490114	0.19629318
4	0x3ec54041	0.38525584
5	0x3f371f60	0.7153225
6	0x3f4b2006	0.7934574
7	0x3ec88d46	0.39170283
8	0x3eb528f0	0.35382795
9	0x3ec5c62c	0.38627756

l2.weight f4 [10, 10]
0	0x3f70e7f2	0.9410392
1	0xbf94ecac	-1.1634727
2	0x3f9494b6	1.1607883
3	0xbfe77b00	-1.8084412
4	0x3e46c497	0.1941093
5	0x3f876dc7	1.0580376
6	0x3f908968	1.1291933
7	0x3f2c93ca	0.6741301
8	0xbf914574	-1.134932
9	0x3fc3d504	1.5299382
10	0x4007944a	2.1184258
11	0xbe976805	-0.29571548
12	0xbf476206	-0.77883947
13	0xbf146863	-0.5797178
14	0xbec837f0	-0.39105177
15	0xbfecdd68	-1.8505068
16	0x3fe467d9	1.7844192
17	0x3ff0e3fb	1.8819574
18	0x3f96f9e1	1.1795007
19	0x3d96c9d7	0.07362717
20	0x3ebcc922	0.36872202
21	0x3e3181f7	0.17334734
22	0x3eb276f2	0.34856373
23	0x3f8e5d73	1.1122268
24	0x4022cfa1	2.5439227
25	0xbf80caf6	-1.0061939
26	0xbf818aa8	-1.012044
27	0x3fd44935	1.6584841
28	0x3cba315f	0.02272862
29	0xbf49d9dd	-0.7884806
30	0x3e9a89a3	0.30183133
31	0xbf407899	-0.7518402
32	0xbf95195e	-1.1648366
33	0x3fb2cf1a	1.3969452
34	0x3df36ada	0.11885615
35	0xbea0daeb	-0.3141702
36	0x3f34dc2f	0.70648474
37	0xbfb07596	-1.3785884
38	0x3fa9a789	1.3254253
39	0x3f015810	0.50525
40	0x3cda538c	0.026651166
41	0xc02b84eb	-2.6799877
42	0x3f1c5bfb	0.6107785
43	0x3ff27415	1.8941675
44	0x3e66cad5	0.22538312
45	0x3fb5132f	1.4146479
46	0xbebc4905	-0.3677446
47	0x3f434620	0.7627888
48	0xbf4a0fac	-0.78930163
49	0x3e34ec9e	0.17668387
50	0xbfb42314	-1.4073205
51	0x3f186043	0.59521884
52	0xbea72bae	-0.32650512
53	0x3fecebaa	1.8509419
54	0x3f193f67	0.5986237
55	0xbfe52d1a	-1.7904389
56	0x3fe0c2cd	1.7559448
57	0x3da08e9b	0.078397
58	0xbf6eebe2	-0.9332868
59	0x4008ea32	2.1392941
60	0xbe35e5af	-0.17763399
61	0xbe345d90	-0.17613816
62	0xbe05d7eb	-0.13070647
63	0x3db83864	0.08995131
64	0xbe92422a	-0.28566104
65	0xbe99d91e	-0.3004846
66	0xbe9fc29c	-0.31203163
67	0x3ceaf8c0	0.028683066
68	0x3de12722	0.10993792
69	0xbc78d674	-0.015187848
70	0x3f1df1ed	0.61697274
71	0xbf4de8cb	-0.8043334
72	0x4010c795	2.2621815
73	0xbf8bdcce	-1.0926759
74	0x3f97a1f5	1.18463
75	0xbf8962f0	-1.0733318
76	0x3ec2b7b3	0.38030776
77	0xbfbaaa49	-1.4583217
78	0x3e83b3f8	0.25723243
79	0x3f754bf4	0.9581902
80	0x3f76e14b	0.9643752
81	0x3ba21a37	0.0049469727
82	0x3f9c6ff2	1.2221663
83	0xbdc847c9	-0.09779317
84	0x3f28ad7a	0.65889704
85	0xbf864bf8	-1.0491934
86	0x3fa582ea	1.2930577
87	0xbfd3e2df	-1.655361
88	0x3f8d59f7	1.104308
89	0xbf875443	-1.057259
90	0x3faf82f4	1.3711839
91	0x40562e5a	3.346579
92	0xbf2cf591	-0.67562205
93	0xbf9486b5	-1.1603609
94	0xbec4b7e8	-0.3842156
95	0x3f26424c	0.6494491
96	0xbf3f483e	-0.7471961
97	0x3d84b0fb	0.06479069
98	0xbe997290	-0.29970217
99	0x3f6a20f2	0.9145652

l2.bias f4 [10]
0	0x3f38b496	0.7215055
1	0x3ef3d856	0.4762599
2	0x3d902a6f	0.070393436
3	0xbdd0cf3c	-0.10195777
4	0xbe50358d	-0.20332928
5	0x3d842d1d	0.06453917
6	0xbca4bf61	-0.020110788
7	0xbf076d1d	-0.5290087
8	0x3f0328fa	0.512344
9	0xbf36a0f7	-0.7133936

l3.weight f4 [45, 10]
0	0xc04056c2	-3.0052953
1	0x3f5cc73c	0.8624151
2	0xbdd7b71c	-0.10532972
3	0xbfd81c1a	-1.6883576
4	0xbe3f6921	-0.18692447
5	0x3e7bb5d6	0.24581084
6	0x3e2c5d65	0.16832502
7	0xc0893fc1	-4.2890325
8	0xbedc93a5	-0.43081394
9	0xbe840f67	-0.25793
10	0xbfe00148	-1.7500391
11	0xc01aebbe	-2.4206386
12	0x3f128605	0.5723575
13	0xc03bdced	-2.9353592
14	0x3e0e778c	0.13912791
15	0x3cb8b490	0.022547036
16	0xbed3be4f	-0.4135613
17	0xbd59b76e	-0.053153448
18	0x3eae4ccd	0.3404297
19	0xbffe7eb8	-1.9882421
20	0xbfe27858	-1.7692976
21	0x3c27b49d	0.010235933
22	0xbe233c3a	-0.15940943
23	0xbf2a9778	-0.6663737
24	0xbfa57ce0	-1.2928734
25	0x3ee26e1f	0.4422464
26	0x3e293544	0.16524225
27	0xbf41e20e	-0.7573556
28	0x3f0b6d20	0.54463387
29	0xbf531b87	-0.8246388
30	0xc067852f	-3.617504
31	0x3f186781	0.59532934
32	0xbfd9442b	-1.6973928
33	0x3f06ce1d	0.52658254
34	0xbfbdbe18	-1.4823637
35	0xc00637c7	-2.0971544
36	0x3ce31ba3	0.02772314
37	0xbfd40991	-1.656542
38	0x3f506e0a	0.81417906
39	0xbff61e70	-1.9228039
40	0xbf3d6e10	-0.7399607
41	0xbdbffc26	-0.093742654
42	0x3d7da2d4	0.061922863
43	0xc00c2492	-2.189732
44	0xbe448863	-0.19192652
45	0x3f540a13	0.8282787
46	0xbe296297	-0.16541515
47	0xbf30487d	-0.6886061
48	0xbfd7dd13	-1.6864341
49	0xbf54b015	-0.8308118
50	0xbf6d7a75	-0.9276498
51	0xbfbfc132	-1.4980834
52	0x3f30a21b	0.68997353
53	0xc0c0f16d	-6.029471
54	0xbe8a48f3	-0.2700878
55	0xbf5ad559	-0.8548179
56	0xbeaea2e2	-0.34108645
57	0xbfbe559e	-1.4869878
58	0xc01719ee	-2.3609576
59	0x3f37d868	0.71814585
60	0xbf248ecd	-0.64280397
61	0x3eeece94	0.46641982
62	0xbde7aff4	-0.11312857
63	0xbf836491	-1.0265065
64	0xbfdac567	-1.7091492
65	0xbff4d8c7	-1.9128655
66	0x3c6b7f50	0.014373615
67	0xbe2e9b2b	-0.1705138
68	0x3e8029ba	0.25031835
69	0xbe7f34ca	-0.24922481
70	0x3de848a9	0.11341984
71	0xbe1ed17a	-0.15509596
72	0xc014aed3	-2.3231704
73	0xc00a292d	-2.1587632
74	0xbfe41ddc	-1.7821612
75	0xc0378039	-2.867201
76	0xbec07c3b	-0.3759478
77	0xbfeb68ec	-1.8391395
78	0xc05af280	-3.421051
79	0x3f8949f0	1.0725689
80	0xbf33985e	-0.7015437
81	0xbf95e658	-1.171092
82	0xbd910a19	-0.07082004
83	0xbf7b833d	-0.9824713
84	0xbe5c2c1b	-0.215012
85	0xbec0f37c	-0.37685764
86	0xbdd8cf79	-0.10586447
87	0x3f5842c1	0.8447686
88	0x3ec6502c	0.3873304
89	0xbf82597c	-1.0183558
90	0xbfcdd3de	-1.6080282
91	0xbf1c50e9	-0.6106096
92	0xbfec85cf	-1.8478335
93	0xbdb68e68	-0.089138806
94	0xbe3829c1	-0.17984678
95	0x3f4a0ba8	0.78924036
96	0x3d7c045c	0.061527595
97	0xbf773e4d	-0.9657944
98	0xbe84b5b0	-0.25919867
99	0xbfdb0b84	-1.7112889
100	0xc00f48b5	-2.2388127
101	0xbeffa33a	-0.4992922
102	0x3e51446f	0.20436262
103	0xbf55a356	-0.83452356
104	0x3e6b4d89	0.22978796
105	0x3edc81b6	0.43067712
106	0xbe75410f	-0.23950599
107	0xbf82c321	-1.0215799
108	0xbed7d951	-0.42157987
109	0xc02ced87	-2.7019975
110	0xbe245b82	-0.16050532
111	0xbc334641	-0.010942043
112	0xbda279a6	-0.07933359
113	0xc099409b	-4.7891364
114	0xbf047c0e	-0.5175179
115	0xbf5f942b	-0.8733546
116	0xbd62b803	-0.05535127
117	0x3f2d0fe0	0.6760235
118	0xbe197485	-0.14985855
119	0xbf23eba1	-0.64031416
120	0xbf8d81cd	-1.1055237
121	0xbfbd6f1c	-1.4799533
122	0x3e94b1c3	0.2904187
123	0xbf48d25e	-0.78445995
124	0xbf4cced0	-0.8000307
125	0xbca283a5	-0.019838164
126	0xbe281a9f	-0.16416405
127	0xc0135fb1	-2.3027155
128	0xbd5b7b29	-0.05358425
129	0x3ef8dc32	0.48605496
130	0xc02e462f	-2.7230337
131	0xc05b8cfa	-3.4304795
132	0xbf741bc2	-0.95354855
133	0x3e65b038	0.22430503
134	0x3ef7bb69	0.4838517
135	0x3e6d6fe3	0.23187213
136	0x3d09368f	0.033499297
137	0xbff33525	-1.9000593
138	0xc0015860	-2.021019
139	0xbfc2dca6	-1.5223587
140	0x3eb78669	0.35844734
141	0xbea77212	-0.32704216
142	0xc022103d	-2.532241
143	0xbfab1bce	-1.336786
144	0xc00d8c69	-2.211695
145	0xc02fcb0f	-2.7467687
146	0xbeab2ccf	-0.33432624
147	0x3f076ef3	0.5290367
148	0x3ee91daf	0.4553046
149	0x3ec36d50	0.38169336
150	0xbf1691d9	-0.58816296
151	0xbfe4b09a	-1.7866395
152	0x3eaa35d0	0.3324418
153	0xc0c77db6	-6.2340956
154	0x3e27c99b	0.163855
155	0x3f471b75	0.7777627
156	0xbea74102	-0.32666785
157	0xbf8ae053	-1.0849708
158	0xc038adb1	-2.8856013
159	0xbeb02a09	-0.3440707
160	0xbe44f41e	-0.19233748
161	0xbf14039f	-0.57818025
162	0x3ef04a43	0.46931657
163	0xc0ec0110	-7.3751297
164	0xbfc9df17	-1.5771207
165	0xbf8a382c	-1.0798392
166	0x3e4ef99d	0.20212407
167	0x3eeb0b03	0.4590684
168	0xbee1a741	-0.44072917
169	0x3d307318	0.043078512
170	0xbdcd7fdf	-0.10034155
171	0x3f43f832	0.7655059
172	0xbe3160d8	-0.17322099
173	0xc1093d64	-8.577488
174	0xc04b7b6f	-3.1794088
175	0xbf1ab269	-0.6042848
176	0xbeeb94de	-0.46012014
177	0xc01eab0d	-2.47919
178	0xc0637f64	-3.5546503
179	0x3f36718a	0.71266997
180	0xbfba6ad5	-1.4563853
181	0xbefabfe7	-0.48974535
182	0xbcd979b6	-0.026547294
183	0xc03cdc83	-2.950959
184	0xc088b274	-4.271784
185	0xc0209d7e	-2.5096126
186	0xbe5c03d4	-0.21485835
187	0x3e83099c	0.2559327
188	0x3e2eb29b	0.1706032
189	0x3ee9c0f7	0.45655033
190	0x3f2efaf0	0.6835165
191	0x3eced6fd	0.40398398
192	0xc0388c64	-2.8835688
193	0xc03db7e3	-2.9643486
194	0xc099c76c	-4.8055935
195	0xbeb33fed	-0.3500971
196	0xbe0b5511	-0.13606669
197	0xbffbf2f2	-1.9683516
198	0xbe9bb38b	-0.30410418
199	0x3e3ea6a1	0.18618251
200	0xbebb2919	-0.36554793
201	0x3eb66a70	0.3562808
202	0xc03b4687	-2.9261796
203	0xbb93e651	-0.00451354
204	0xc072cfc9	-3.7939322
205	0xbf84de88	-1.0380411
206	0xbe2ae26f	-0.1668794
207	0x3ebac64b	0.3647941
208	0x3ef795ee	0.48356575
209	0xbfa8f8cd	-1.3200928
210	0xc01f8e7c	-2.4930716
211	0xbd947d45	-0.07250456
212	0x3f9e217b	1.2353967
213	0xc0aba347	-5.3636813
214	0xbff641d1	-1.9238836
215	0xbd971457	-0.073769264
216	0xbe053bde	-0.13011119
217	0xbfc51c12	-1.5399191
218	0xbf9a647b	-1.2061914
219	0x3e172438	0.1475991
220	0xbe202cb8	-0.15642059
221	0xbf3c2f5e	-0.73509777
222	0xbf3595a4	-0.7093146
223	0xbfb1035f	-1.3829154
224	0xc013a2a4	-2.3068018
225	0xbc6d15e3	-0.01447055
226	0xbdfd24c0	-0.12360525
227	0x3f1de80a	0.6168219
228	0xbdf03a39	-0.11729855
229	0x3eb9b644	0.3627187
230	0xc012f4cc	-2.2961912
231	0xbe8b3e0e	-0.2719578
232	0x3f06e761	0.52696806
233	0xbd8ecd60	-0.06972766
234	0xbee944ed	-0.455604
235	0xc01bdc03	-2.4353034
236	0xbe49ed4d	-0.1971943
237	0xbf769101	-0.9631501
238	0x3e924573	0.2856861
239	0xbf789eff	-0.9711761
240	0xc053deea	-3.3104806
241	0xbf8b13ab	-1.0865377
242	0x3dfb0bf1	0.12258137
243	0xbf168195	-0.58791476
244	0x3f915eff	1.1357116
245	0xc00f2c65	-2.2370846
246	0xbcbd4819	-0.023105668
247	0xbf41b21b	-0.7566239
248	0xc0330307	-2.7970598
249	0x3ec81ffc	0.39086902
250	0xc019d7a1	-2.403786
251	0x3eda54b5	0.4264275
252	0xc012a404	-2.2912607
253	0xbe9e1d22	-0.30881602
254	0xc09498f2	-4.64367
255	0x3f1881a8	0.5957284

l3.bias f4 [45]
0	0x3e3e4051	0.18579222
1	0xbf071d06	-0.5277866
2	0xbd7662ec	-0.060152933
3	0x3e4391fc	0.19098657
4	0xbee2bb62	-0.44283587
5	0xbeba8307	-0.3642809
6	0xbed0aa6f	-0.4075503
7	0x3f005600	0.50131226
8	0xbf1eec5a	-0.62079394
9	0xbd24d4d2	-0.040242024
10	0xbd142ea9	-0.03617731
11	0xbfa0a11c	-1.2549167
12	0x3e2c5eec	0.16833085
13	0xbc666cd4	-0.014064033
14	0xbf813c93	-1.0096611
15	0xbf114ff0	-0.567626
16	0xbf0b6f5d	-0.544668
17	0xbde92bd3	-0.11385312
18	0x3d88d340	0.06680918
19	0x3e53538a	0.20637336
20	0x3e2f1b28	0.17100203
21	0x3dd5a46b	0.10431751
22	0xbf012b76	-0.5045694
23	0x3d9b5155	0.07583872
24	0x3eaa9248	0.3331473
25	0x3ebcc3a1	0.36868003
26	0xbe9f9755	-0.31170145
27	0xbf5cce77	-0.8625254
28	0xbf91e498	-1.1397886
29	0x3da23920	0.07921052
30	0x3e013b74	0.12620336
31	0x3e0457e2	0.1292415
32	0x3d6ad76c	0.05733435
33	0xbed4bf68	-0.4155228
34	0x3e6a4772	0.22878817
35	0xbe87f168	-0.26551366
36	0x3d936970	0.07197845
37	0xbf2f3b1b	-0.6844956
38	0xbec6b0b4	-0.3880669
39	0xbe793e6c	-0.24340218
40	0xbd279a03	-0.04091836
41	0xbe80f027	-0.25183222
42	0xbe5c5681	-0.21517374
43	0xbf8a1034	-1.0786195
44	0x3f5a9bab	0.8539378
